models/03_computer_vision_model_0.pth (torch, 34152 bytes, 4 tensors)

layer_stack.1.weight f4 [10, 784]
0	0x3cdf8cae	0.027288761
1	0x3cf42631	0.029803367
2	0xbbd43f25	-0.006477254
3	0x3cfdcd21	0.030981602
4	0xbcca346b	-0.024683198
5	0xbd1c3062	-0.03813208
6	0xbdddcc56	-0.108299896
7	0xbddd0507	-0.107919745
8	0xbdd955da	-0.10612078
9	0xbda0536a	-0.0782841
10	0x3e8551a7	0.26038858
11	0x3e8983fb	0.26858506
12	0xbe5a5363	-0.21320872
13	0xbea653d3	-0.32485828
14	0xbe9bb931	-0.30414727
15	0xbe90bd3e	-0.2826938
16	0x3e2f9b16	0.17149004
17	0x3ed40dac	0.4141668
18	0x3b2e28f9	0.0026574715
19	0xbe4438d6	-0.19162306
20	0xbe4597be	-0.19296166
21	0xbe0dda3e	-0.13852784
22	0xbdbff5e8	-0.09373075
23	0xbcefcc12	-0.029272113
24	0xbd4bd112	-0.04975993
25	0xbcde5c90	-0.027143747
26	0xbc49be2c	-0.012313407
27	0xbca99468	-0.020700648
28	0x3b6731a7	0.0035277398
29	0xbd0ebaf0	-0.034846246
30	0x3d0aac6d	0.033855844
31	0xbd2559e2	-0.040368922
32	0xbc93b378	-0.018029913
33	0xbdd39775	-0.103316225
34	0xbe538bc8	-0.20658791
35	0xbd894107	-0.06701856
36	0x3ddc99e6	0.10771541
37	0x3f02ee30	0.51144695
38	0x3eb310db	0.34973797
39	0x3d0914bd	0.033467043
40	0x3d03b8cb	0.032158654
41	0x3e2cf60b	0.16890733
42	0x3e498da7	0.19682942
43	0x3dd0d82a	0.1019748
44	0x3dfa8b73	0.12233629
45	0x3e8e0465	0.27737728
46	0x3ef7fe75	0.48436323
47	0x3e425604	0.18978125
48	0xbdd13140	-0.10214472
49	0xbe4d1fd7	-0.20031677
50	0xbe3f8eb3	-0.18706779
51	0xbddc53c7	-0.10758167
52	0xbd9a87e7	-0.075454526
53	0x3ba5010b	0.0050355247
54	0x3ba58088	0.0050507225
55	0x3ca88a99	0.020573901
56	0x3c300d40	0.010745347
57	0xbabc0fbb	-0.001434795
58	0x3cae0dd1	0.021246823
59	0xbd2dc388	-0.0424228
60	0xbd2b6e08	-0.04185298
61	0xbd73335f	-0.059375163
62	0x3e512fd7	0.20428406
63	0x3ea06151	0.31324247
64	0x3e397d63	0.18114237
65	0x3e1cf99f	0.15329598
66	0x3ca55a77	0.020184739
67	0xbdf3f7c5	-0.11912493
68	0xbda6e33f	-0.081488125
69	0xbda565ee	-0.08076082
70	0xbd41b772	-0.047294088
71	0xbe160303	-0.14649586
72	0xbd732a74	-0.05936666
73	0xbddbced6	-0.1073281
74	0xbca0531c	-0.01957088
75	0xbc887b21	-0.016660275
76	0x3e2a4a60	0.16629934
77	0x3e38273b	0.17983715
78	0x3d31f90f	0.04345041
79	0xbd71dce0	-0.059048533
80	0xbd86f6b6	-0.06590025
81	0xbd475366	-0.04866352
82	0x3c248162	0.010040613
83	0xbc48a205	-0.01224566
84	0x3c9e92a4	0.019357033
85	0xbc4a4dde	-0.012347667
86	0x3c71d504	0.01476026
87	0xbd65dff8	-0.056121796
88	0x3d1999b4	0.0375001
89	0x3e45d8a9	0.1932093
90	0x3e7e3108	0.24823391
91	0xbbe1fa80	-0.006896317
92	0xbd83b45d	-0.06430886
93	0x3c70ae58	0.014690004
94	0x3e00fc1a	0.12596169
95	0x3d52c048	0.051452905
96	0xbc79c069	-0.015243628
97	0xbe2ca576	-0.16859993
98	0xbe124e1d	-0.1428761
99	0xbe32a078	-0.17444026
100	0xbd45df7e	-0.048308842
101	0x3dbc4a60	0.091938734
102	0x3c177cab	0.009246032
103	0xbe941b67	-0.28927156
104	0xbe24c550	-0.16090894
105	0x3c7be664	0.015374754
106	0x3e16d749	0.14730562
107	0x3c0a4b02	0.008440735
108	0xbda6d53e	-0.081461415
109	0xbd8b7d43	-0.06811001
110	0x3d13b462	0.0360607
111	0x3a28d5c1	0.0006440543
112	0x3c05df82	0.008170964
113	0xbd23d102	-0.039994247
114	0xbd13696b	-0.035989206
115	0xbc59ed68	-0.013301231
116	0x3e0b7e91	0.136225
117	0x3e1b2203	0.15149693
118	0x3d8cfb95	0.06883923
119	0x3d7b953b	0.061421614
120	0x3d8e9a59	0.06963033
121	0x3d8c9de4	0.06866053
122	0x3e0cdd80	0.1375637
123	0xbc6ba142	-0.014381709
124	0xbe3579da	-0.17722264
125	0xbe652da6	-0.22380695
126	0xbe521752	-0.20516708
127	0xbe36e766	-0.17861709
128	0xbd8b2eeb	-0.06796058
129	0x3de64a75	0.1124467
130	0x3e2ea6d1	0.17055823
131	0xbcad8464	-0.021181293
132	0xbbe3cd36	-0.0069519533
133	0x3b2419d1	0.0025039802
134	0x3d07b8bd	0.033135165
135	0x3e0c9f71	0.13732697
136	0xbc8ff66a	-0.017573554
137	0xbdce2274	-0.10065165
138	0xbc8fb45c	-0.017542057
139	0xbb4401f9	-0.0029908402
140	0x3c478df3	0.012179839
141	0xbd1e7b7b	-0.03869198
142	0x3c95fe3a	0.018309701
143	0x3cbf4b53	0.023351347
144	0x3e27f13a	0.16400614
145	0x3e3abf15	0.18236955
146	0x3e16b829	0.14718689
147	0x3e2ef177	0.17084299
148	0x3e2da1e0	0.16956282
149	0xb88fdcb2	-6.859879e-05
150	0x3d895910	0.067064404
151	0xbd5251df	-0.05134761
152	0xbdab5745	-0.08366255
153	0xbe88e8aa	-0.2674001
154	0xbe60b85e	-0.2194533
155	0xbdc5f271	-0.09665383
156	0xbd13c18c	-0.036073253
157	0x3e180f2d	0.14849539
158	0x3e5e3589	0.2170011
159	0x3d54cf50	0.05195552
160	0x3d747e52	0.05969078
161	0x3ce65e25	0.028121063
162	0xbd637250	-0.05552894
163	0x3d8ad57d	0.06779001
164	0xbc93033d	-0.01794588
165	0xbdf95a4c	-0.12175426
166	0xbd92984d	-0.07157955
167	0x3d0eb060	0.034836173
168	0x3b95679e	0.0045594713
169	0xbca8d775	-0.02061055
170	0xbb34d50f	-0.0027592813
171	0x3da25112	0.07925619
172	0x3e3f2c25	0.18669184
173	0x3e250092	0.16113499
174	0x3e1ac182	0.1511288
175	0x3e438211	0.19092585
176	0x3db79543	0.08964016
177	0x3d75297d	0.05985402
178	0x3cbe95ee	0.023264851
179	0xbded772c	-0.11594996
180	0xbd8fca35	-0.0702099
181	0xbe509d5c	-0.20372528
182	0xbe8f0dce	-0.2794022
183	0xbe15892b	-0.14603107
184	0xbc436151	-0.0119250575
185	0x3e11c79f	0.14236306
186	0x3e7d3a92	0.24729374
187	0x3dff1848	0.12455803
188	0x3d16e4c8	0.036839277
189	0xbd8d0430	-0.06885564
190	0xbdb39fe5	-0.08770732
191	0xbaf6a636	-0.0018817845
192	0xbd52d4e6	-0.051472567
193	0xbe17f16a	-0.14838186
194	0xbdc342cb	-0.09534224
195	0xbcf2d6ae	-0.029643383
196	0x3ac77c09	0.001521946
197	0x3c2e1536	0.010625174
198	0x3cffccc9	0.031225579
199	0x3dd7a8fb	0.10530277
200	0x3dc4caa0	0.0960896
201	0x3de296c5	0.11063913
202	0x3e770925	0.24124582
203	0x3e7d6f9d	0.24749608
204	0x3e0ddb81	0.13853265
205	0x3cec28e1	0.028828086
206	0xbcbd9bef	-0.023145644
207	0xbdea3624	-0.11436108
208	0xbda2d77b	-0.07951256
209	0xbe5a8fbe	-0.21343896
210	0xbea61083	-0.32434472
211	0xbdf4d454	-0.11954561
212	0xbce45843	-0.027874118
213	0x3d991069	0.07473833
214	0x3e6e597e	0.23276326
215	0x3ea6cf2a	0.3257993
216	0x3e0d213a	0.13782206
217	0xbd97aff1	-0.07406605
218	0xbd9d64ea	-0.076852635
219	0xbdd19675	-0.102337755
220	0xbde3065c	-0.11085197
221	0xbe3bd6a4	-0.18343598
222	0xbe2ccfb5	-0.16876109
223	0xbd3f8c47	-0.04676464
224	0xbd03c6e1	-0.032172088
225	0x3d3288a5	0.043587346
226	0x3d928c41	0.071556576
227	0x3de711ff	0.11282729
228	0x3dcdf63d	0.10056732
229	0x3d6f30a2	0.05839599
230	0x3e1fa4d4	0.1559022
231	0x3e725691	0.23665835
232	0x3e3b715a	0.18304959
233	0x3d98bf48	0.07458359
234	0xbc0b23ec	-0.008492451
235	0xbd7594d5	-0.05995639
236	0xbd9a6d7d	-0.075404145
237	0xbe9cad03	-0.30600747
238	0xbebdcc16	-0.37069768
239	0xbe7fa6b9	-0.24965943
240	0x3da43596	0.08018033
241	0x3e405f62	0.18786386
242	0x3dd9adf5	0.10628883
243	0x3d8f934f	0.07010519
244	0x3d9bcbd2	0.07607235
245	0x3d6793f6	0.05653759
246	0xbdc28704	-0.094984084
247	0xbdc9d390	-0.098548055
248	0xbd709f78	-0.05874583
249	0xbe05977a	-0.13046065
250	0xbe2aed6c	-0.16692132
251	0xbd574de3	-0.052564513
252	0xbbad9710	-0.005297549
253	0x3c387c9a	0.011260176
254	0x3d2e9674	0.042623952
255	0x3d9b4140	0.07580805

layer_stack.1.bias f4 [10]
0	0xbd0e2ef5	-0.03471275
1	0x3e5e4320	0.21705294
2	0x3fa2c925	1.2717634
3	0xbf2e1d24	-0.68013215
4	0x3f175ffc	0.59130836
5	0x3f0a6e88	0.5407491
6	0xbea0d7b4	-0.31414568
7	0x3e21bac5	0.15793903
8	0xbe2499c9	-0.1607429
9	0x3f8332c9	1.0249873

layer_stack.2.weight f4 [10, 10]
0	0x3ec169bf	0.3777599
1	0xbeff9657	-0.49919388
2	0xbe2d778f	-0.16940139
3	0x3ed029a9	0.40656784
4	0x3ed5488b	0.41656908
5	0x3f362c9a	0.71161807
6	0xbe2df6d8	-0.16988695
7	0xbe97474e	-0.2954659
8	0xbe649650	-0.22322965
9	0x3e9f1a19	0.31074598
10	0xbf019c34	-0.5062897
11	0x3e75a323	0.23988013
12	0xbee83b8d	-0.45357934
13	0x3e3c7422	0.18403676
14	0xbdda9376	-0.10672657
15	0xbd8b96dc	-0.068158835
16	0xbf815c57	-1.0106305
17	0xbf324d75	-0.6964944
18	0xbea54483	-0.32278833
19	0xbf47d094	-0.7805264
20	0x3f1c7a47	0.6112408
21	0xbe1dc9e8	-0.15409052
22	0xbdf98f90	-0.121855855
23	0x3e95e819	0.2927864
24	0xbe98ef6b	-0.2987016
25	0x3f2e2e4c	0.68039393
26	0x3e7138b0	0.23556781
27	0xbe61747e	-0.22017094
28	0xbf1235d7	-0.57113403
29	0xbe31b4cb	-0.17354123
30	0x3ea3560e	0.31901592
31	0xbf0e6cc0	-0.5563469
32	0x3f06c9ad	0.5265148
33	0xbe11df92	-0.14245442
34	0x3e9447a7	0.28960916
35	0x3ed44b22	0.41463572
36	0x3d91249b	0.0708706
37	0xbf1240e7	-0.57130283
38	0x3d842c25	0.064537324
39	0xbedf95c8	-0.43668962
40	0x3e68ffcf	0.22753833
41	0xbeb0646e	-0.34451622
42	0xbebf7c98	-0.37399745
43	0x3e56626c	0.20935982
44	0xbee88c5f	-0.45419595
45	0x3f8309f9	1.0237418
46	0x3ecebf56	0.40380353
47	0xbe73abee	-0.23796055
48	0xbd48af7b	-0.048995476
49	0xbef0e923	-0.4705287
50	0xbf99b85e	-1.2009389
51	0x3f702d77	0.93819374
52	0x3f93ca80	1.1546173
53	0xbe119410	-0.14216638
54	0xbd9579d7	-0.0729863
55	0xbeeae417	-0.45877144
56	0x3d50090b	0.050789874
57	0x3f9a9b5a	1.207866
58	0x3e523ac0	0.20530224
59	0x3f0ba5da	0.54549944
60	0x3e96cf48	0.29455018
61	0xbf0c773d	-0.54869443
62	0xbee6f22e	-0.45106643
63	0xbe780ac1	-0.24222852
64	0x3e11159c	0.141684
65	0x3f300bc4	0.6876795
66	0x3ec4fc75	0.3847386
67	0xbdc573b6	-0.09641211
68	0xbf06d93f	-0.5267524
69	0x3c9d2d5f	0.019186674
70	0x3e9eff4a	0.31054145
71	0x3f0b8438	0.54498625
72	0x3e31de65	0.17369993
73	0xbe87edb1	-0.26548532
74	0xbc76c685	-0.015061979
75	0xbf9e449c	-1.2364688
76	0xbf0eb541	-0.5574532
77	0x3f60cd07	0.87812847
78	0x3f83e055	1.0302836
79	0xbd517427	-0.051136162
80	0x3e057c1f	0.1303563
81	0xbe14bfa2	-0.14526227
82	0xbe218cca	-0.15776363
83	0x3c022f9f	0.007945924
84	0xbf3539e5	-0.70791465
85	0x3b031c7b	0.002000599
86	0x3f0d8753	0.55284613
87	0xbf2a5969	-0.6654268
88	0x3eca5958	0.3952129
89	0x3f46b6ee	0.7762288
90	0xbf09efcb	-0.5388152
91	0x3de2674e	0.1105486
92	0x3c99e94f	0.018788008
93	0x3f3900f8	0.72267103
94	0x3e6c3515	0.23067124
95	0xbfe420f9	-1.7822562
96	0x3ea7d5ae	0.32780212
97	0x3f66b07c	0.90113044
98	0x3eb904a0	0.3613634
99	0xbe805cf5	-0.2507092

layer_stack.2.bias f4 [10]
0	0x3e870ecf	0.26378486
1	0xbe306ff7	-0.17230211
2	0x3eca1666	0.39470214
3	0x3e99019c	0.2988404
4	0xbf22149b	-0.6331269
5	0x3f7f3118	0.99684286
6	0x3f5a60fc	0.85304236
7	0x3e1ddfcb	0.15417401
8	0xbeb62f18	-0.35582805
9	0xbf8d9d9d	-1.1063725
