models/03_CNN_model_2.pth (torch, 34906 bytes, 10 tensors)

conv_block_1.0.weight f4 [10, 1, 3, 3]
000000 6d 54 69 bf 1b 28 71 bf 5d 31 8a 3e fa 7c 09 bf
       -0.9114445 -0.9420182 0.26990786 -0.53706324
000010 6a 00 1d bf b4 3d f2 3e 2b b9 d7 3d e9 36 83 3e
       -0.61328757 0.473127 0.10533365 0.2562783
000020 e3 c5 81 3d 70 87 90 be 7f 84 53 3e 24 32 9d be
       0.06336572 -0.2822833 0.20656012 -0.30702317
000030 0f 03 3d be 0a 3e 83 bd 3a b4 74 be 60 3f b0 3e
       -0.18458198 -0.064083174 -0.23896876 0.3442335
000040 d9 9b 79 bd 49 c5 2d 3e 29 48 22 bf 74 b7 54 be
       -0.060939644 0.1696979 -0.6339136 -0.20773107
000050 9f d0 94 be b4 38 34 bf 2c bf f1 be 51 4a 8b be
       -0.29065415 -0.7039902 -0.47216165 -0.27205136
000060 82 52 9c 3e 0f 21 cf be 8f 75 5b be bd 3b 60 3b
       0.30531698 -0.4045491 -0.21431564 0.0034215294
000070 9a dd b2 bd ce 5a 80 3e f8 87 0a 3f 39 d0 95 3d
       -0.087336734 0.25069278 0.5411372 0.07315106
000080 1b 43 9c 3e a7 de f5 3e 0a c2 db be 7d b4 57 3d
       0.30519947 0.48021433 -0.42921478 0.05266236
000090 4d 09 6d 3e 0d b0 d7 3e 5f b3 e8 bd d9 e4 61 bd
       0.23148079 0.42126504 -0.11362337 -0.055149887
0000a0 da ef df bd ab bb 83 3c b5 19 b8 bc 1a f7 33 bf
       -0.1093442 0.016080698 -0.022473196 -0.7029892
0000b0 13 ef e7 bd 95 5a bf bd 13 88 83 3e 24 e9 72 3c
       -0.11324897 -0.09343449 0.25689754 0.014826093
0000c0 7a 11 93 be b2 73 33 be 2f a7 76 be 09 e9 10 3e
       -0.2872427 -0.17524603 -0.24087213 0.14151396
0000d0 71 41 69 be 95 14 16 bd 32 d7 76 be 80 5f cc be
       -0.2277887 -0.036640722 -0.24105528 -0.3991661
0000e0 ba f7 83 3e 5e 72 81 bf 8e b4 85 bf 85 9d 55 bf
       0.25774938 -1.0113027 -1.0445726 -0.8344348
0000f0 e1 92 25 3d 28 57 e7 be ee 18 d4 3d 94 b2 cf 3a
       0.040423278 -0.45183682 0.103563175 0.0015846067
000100 d5 45 c9 bc 54 36 fb 3e d8 47 51 be c3 6f 5a bf
       -0.024569431 0.49064887 -0.20437562 -0.85326785
000110 69 84 05 bf 39 70 a6 3e a9 cf a1 be 98 c1 0b 3e
       -0.52155167 0.32507494 -0.31603745 0.13648069
000120 36 22 79 3e c9 87 c9 3d 60 52 92 3e 43 67 23 3f
       0.24329457 0.09840352 0.28578472 0.6382944
000130 de a9 11 be 34 2c a9 be 75 f6 9c 3e 98 fa 23 bf
       -0.14224955 -0.33041537 0.30656782 -0.6405425
000140 4e 18 bb be 8a 80 47 3e b4 3f 86 3e 97 cf ca be
       -0.3654198 0.19482628 0.26220477 -0.39611503
000150 82 fe a9 3e b3 5f 7d be a1 d7 e0 be 75 17 e1 3e
       0.33201987 -0.24743538 -0.43914512 0.4396321
000160 ae e1 53 3d d2 56 18 be
       0.051728897 -0.1487687

conv_block_1.0.bias f4 [10]
000000 93 cf e7 3d c2 b3 e3 bd 58 74 1b 3e f3 c8 22 be
       0.113188885 -0.111182705 0.151811 -0.15896969
000010 2c ea 21 3e 11 ce 11 bd 43 36 c3 3e da 3d f5 bc
       0.15811986 -0.03559691 0.38127336 -0.02993672
000020 d1 43 e6 3d 0c 00 10 3e
       0.11243404 0.14062518

conv_block_1.2.weight f4 [10, 10, 3, 3]
000000 0d 28 fa 3c bc 94 00 be d5 16 80 bd f9 d9 32 be
       0.030536676 -0.12556738 -0.06254355 -0.17465962
000010 de 65 96 be d9 52 2f be 03 61 0c be 16 5f 46 be
       -0.29374593 -0.17121448 -0.13708882 -0.1937221
000020 df 17 08 be b7 86 03 bd 16 59 80 3d 7e 8b e1 3c
       -0.13290356 -0.032110896 0.06266992 0.027532335
000030 a2 cc 3e bd b0 37 53 bd c7 0c 09 bd 3f a8 ed bc
       -0.04658187 -0.05156678 -0.03345945 -0.02901089
000040 be 62 d6 3d 17 6d 80 3d 5d 8b 11 3e 53 09 48 bd
       0.10468052 0.06270807 0.14213319 -0.048837017
000050 24 82 52 3d c8 d4 39 bc 6c ce 5b be 45 f3 23 bd
       0.051393643 -0.011342235 -0.21465462 -0.04002692
000060 0c 2c 6e bc 8b 3b ed bd b6 3b 78 bd 9d 13 95 3e
       -0.014536869 -0.115836225 -0.06060382 0.29116526
000070 72 2b e5 bd 34 60 5f bd 0e 6a b8 3e 01 90 1a be
       -0.11189927 -0.054535106 0.36018413 -0.15093996
000080 4b 66 44 be 90 9c 8b 3e 58 7b 88 be c1 ed 38 be
       -0.19179647 0.27267885 -0.26656604 -0.18059446
000090 23 20 1f be f8 de 0f 3e e1 63 37 bc df 9d a3 bc
       -0.15539603 0.140499 -0.011193247 -0.01997274
0000a0 d3 9f 88 3e 39 05 c0 3d 24 c2 f3 bb 4b bd 90 3d
       0.26684436 0.09375996 -0.007438915 0.07067355
0000b0 06 41 25 3c 00 e1 78 bc 55 db cd 3d 8b dc 2e bd
       0.010086304 -0.015190363 0.100516 -0.042690795
0000c0 4d e3 9d bd 80 f3 6a bd f5 46 e2 bc 4e 3e 8b bd
       -0.0770937 -0.057361126 -0.027621726 -0.06798993
0000d0 a3 a7 59 bd 78 02 49 3d ee b7 77 3d ca 39 e3 bd
       -0.053138386 0.04907462 0.060478143 -0.11095007
0000e0 a4 bc 21 bc 55 0e 0b be 4d a2 14 be e0 2b 69 3d
       -0.009871636 -0.13579686 -0.14515038 0.056926608
0000f0 2f cb 13 be 1b ab 09 bc 8d 25 ba 3c 2d f6 f4 bd
       -0.14432977 -0.008402611 0.022722984 -0.11961017
000100 36 35 82 be d6 8f 19 3e 25 90 ed bd d6 bd 20 be
       -0.25431222 0.14996275 -0.11599759 -0.15697417
000110 86 db 7f 3e 0a dc 8c bd d7 7b 2c 3c f8 c8 cb 3c
       0.24986085 -0.068779066 0.010527573 0.024876103
000120 66 44 12 be bc c0 a3 3d af b6 57 3e fc 6c 0e 3e
       -0.14283904 0.079957455 0.21065782 0.13908762
000130 7f 06 69 3e 73 24 0a 3e 14 b9 1f 3e b6 4a c6 3d
       0.22756384 0.13490467 0.15597945 0.09682219
000140 fe e6 9c bd e6 f7 4b 3e 69 bf 90 3e ff 18 43 bd
       -0.07661246 0.19918784 0.28271034 -0.04763126
000150 df 76 ba 3d ce 72 6d 3e 5c d4 cc bd 99 21 2c 3e
       0.09104704 0.23188326 -0.10001442 0.16809691
000160 42 70 24 3e 2b 6e 53 be 2c d4 9a 3d b7 94 a3 3c
       0.16058448 -0.20647494 0.0756 0.019968374
000170 8b 34 b6 bd a7 b4 0f 3e ca d6 9a 3d 04 ed 4f 3d
       -0.088967405 0.14033757 0.07560499 0.050763145
000180 fd 56 e3 3d 1c 62 81 bd c6 81 69 3d a9 aa c0 3d
       0.11100576 -0.06317541 0.057008527 0.09407551
000190 1f 88 cd bd 9f d9 da bb 3c d7 9f bd 97 5d 82 3c
       -0.10035729 -0.0066787745 -0.078047246 0.015913768
0001a0 ff 74 42 3d ca b3 d8 bc ed dd 72 bc ee 96 37 3d
       0.047474857 -0.026452918 -0.014823419 0.044821672
0001b0 4e ee c0 bb 38 c0 97 bd 56 ef a9 3d fb 44 35 bd
       -0.005887783 -0.0740971 0.08297603 -0.044255238
0001c0 6d b9 89 3b 0c 93 85 3c 67 c4 37 3c b8 2a 95 bd
       0.0042030127 0.016305469 0.01121626 -0.072835386
0001d0 c4 cf 89 3d 7e a7 2e be 67 72 25 bd 37 d1 f7 3d
       0.06729081 -0.1705608 -0.040392306 0.121004514
0001e0 a3 1f 49 be b5 95 ca bc be 72 1c 3e f7 bc 20 be
       -0.19640975 -0.024729589 0.15278146 -0.15697084
0001f0 86 d5 ba 3c aa 6d 27 3e f0 cd af 3d 99 7e af bd
       0.022806894 0.16350427 0.08584201 -0.085690685
000200 f9 5a 92 bd 1b f1 95 3b 30 7f 8a bc ee 9b 98 3d
       -0.07146258 0.004575861 -0.01690635 0.07451616
000210 ca b7 17 be 3d 56 0a 3c cc 16 ac 3d 09 1f 6f 3d
       -0.14816204 0.008443412 0.08402786 0.058379207
000220 00 a0 ca bd ff e9 23 bd 39 b5 bc bd 6e a3 84 bd
       -0.09893799 -0.040018078 -0.09214253 -0.06476484
000230 ae 13 84 3d a4 0a 94 bc 97 2e 59 3d 65 b3 7b bd
       0.06449066 -0.01807148 0.053022947 -0.06145038
000240 62 e5 55 3d ff 29 a9 bd f1 1d 8f 3d 9c 8a 05 bb
       0.05222071 -0.08259963 0.06988133 -0.0020376807
000250 b0 66 4d bb 47 a6 c5 bd 25 48 ab 3d a1 6f 17 3e
       -0.0031341724 -0.096508555 0.0836337 0.14788677
000260 cf 7d 8b 3d ba 16 33 bd 70 d9 14 bd 90 37 10 bd
       0.068111055 -0.043722846 -0.036340177 -0.03520924
000270 cd 7a c9 bd ec fb 92 3d 62 03 2c bd 30 bf a2 3c
       -0.098378755 0.071769565 -0.041995414 0.019866556
000280 b9 07 1f bd 7c 1a 71 bd a0 6f 3e bd 41 8d 41 bd
       -0.038825724 -0.058863148 -0.046493173 -0.04725385
000290 02 b4 94 3d f3 cf 5c be b5 0d 75 bc 36 6b ab 3d
       0.07260896 -0.21563701 -0.014956881 0.08370058
0002a0 65 ec 46 be 5b c8 fd bd e7 15 47 3e 19 9a ea bd
       -0.19426115 -0.123917304 0.19441949 -0.11455173
0002b0 c8 b4 aa bd 33 65 e2 3c a0 0a 60 be 67 21 45 be
       -0.083352625 0.027636146 -0.21879053 -0.19251023
0002c0 89 54 2c 3c 05 43 33 be d7 ee d9 3c cc 1f 6d 3e
       0.010518202 -0.17506035 0.026603146 0.23156661
0002d0 d2 aa b7 bd 89 75 92 3e a8 fb 10 3f 51 03 e8 3d
       -0.08968128 0.28605297 0.56633997 0.113287576
0002e0 a7 1a 03 3e 90 fc 78 3d 7b c7 cd 3c 73 64 05 bd
       0.12803136 0.060787737 0.025119534 -0.0325665
0002f0 45 6f 4d be 33 39 17 3e 62 56 7b 3b 08 f6 c3 3d
       -0.20061977 0.14767914 0.0038351049 0.09568411
000300 70 4a 47 bd ef 2e 80 bc a7 ef ff bd 5e 11 3d bd
       -0.048654974 -0.01564738 -0.12496882 -0.04615914
000310 11 22 80 bd 2b a0 3d bd 99 dc 38 3e 1c 63 f6 3d
       -0.06256498 -0.046295326 0.18052901 0.12030622
000320 e8 94 47 bc 68 8f 72 3e c1 bf 35 3e 1b eb 09 3d
       -0.012181498 0.23687518 0.1774893 0.03367148
000330 13 d4 f5 bc 91 10 7b be 60 ee f4 bd a2 55 a3 3e
       -0.030008351 -0.24518038 -0.11959529 0.3190127
000340 1d c5 fd be ac f8 86 3e 25 ad 9b 3e 61 b0 79 be
       -0.49564448 0.26361597 0.30405536 -0.2438369
000350 f7 2c 26 3d 59 d5 ad 3e 9b 47 ab bd e1 74 72 be
       0.040570226 0.33951834 -0.08363267 -0.23677398
000360 b3 43 89 3d ae 17 f7 3d d4 86 d1 bd 84 cb 85 3d
       0.06702366 0.120650634 -0.102307945 0.06532958
000370 2a 9b d2 bd d1 bf 99 3d 05 ff 27 be 2e 28 11 be
       -0.102835014 0.07507289 -0.16405876 -0.14175484
000380 8f 2c ad bd 11 ac 43 3d 14 ee 1e bd 64 4f bc bd
       -0.084557645 0.047771517 -0.038801268 -0.0919483
000390 37 dd 13 bd 50 32 bf 3d 55 7d 80 bc 54 76 f0 3c
       -0.03609964 0.09335768 -0.015684763 0.029353298
0003a0 f5 04 2a bd d7 5f a2 3d 1b 51 01 3f bc 88 b1 3e
       -0.041508634 0.07928436 0.5051438 0.34674633
0003b0 8d a4 93 bd 1a f9 49 3e 9c a9 f9 3d 41 63 25 be
       -0.0720912 0.19723931 0.121905535 -0.16151144
0003c0 a8 b4 f0 3d b3 f2 d5 be b9 1a 57 be b6 e0 bd 3e
       0.117532074 -0.41786727 -0.21006288 0.37085503
0003d0 e5 a4 61 3c 0b 82 9b 3b 68 88 5c 3d a2 94 07 3d
       0.013772224 0.004745727 0.053841025 0.03310073
0003e0 0e 79 4a bd 55 08 ac bd cc f0 85 bd 5e 49 42 be
       -0.049431853 -0.08400027 -0.06540069 -0.189733
0003f0 49 dc 38 3e 9b 7a b0 be 84 e8 c2 bd 0a fb 03 3e
       0.18052782 -0.3446854 -0.09517005 0.12888733

conv_block_1.2.bias f4 [10]
000000 a2 81 5a 3c 19 1d d7 3d 98 b4 99 bc cf 85 17 bd
       0.013336571 0.10503597 -0.018762872 -0.036992844
000010 0a 17 03 3e fd 0a c6 bd c8 89 1b 3f cf 17 00 be
       0.12801757 -0.096700646 0.6075711 -0.12509082
000020 64 53 c3 bc d2 1c 33 3e
       -0.023843475 0.17491463

conv_block_2.0.weight f4 [10, 10, 3, 3]
000000 fb 49 4a be f9 e0 84 be 98 03 77 be 82 3b 13 bc
       -0.19754784 -0.2595289 -0.24122465 -0.008986356
000010 a4 6b 43 3e bd 6b 00 be 8f 13 a9 3e 89 6a c2 bd
       0.1908403 -0.12541099 0.33022735 -0.09492976
000020 4b dc 54 bd f0 74 d1 bd 21 76 3a bc 2b 1e 65 3d
       -0.0519679 -0.10227382 -0.011380703 0.055936974
000030 b9 14 38 be 28 85 a3 bc 34 5f 73 3d b1 dc 9f be
       -0.17976655 -0.019960955 0.059416965 -0.31223062
000040 97 7c 92 3d 90 26 96 bd ac 8e 11 3c 67 71 f7 3e
       0.0715267 -0.07331574 0.008884113 0.48328707
000050 b4 55 ec bd 7d fe bf bc 68 0a 46 bd 15 c2 61 be
       -0.11539784 -0.02343678 -0.048349768 -0.22046693
000060 a3 6e af be ec 62 da bd b9 90 ca be 3f 06 f7 3e
       -0.34264097 -0.10663399 -0.3956354 0.48246953
000070 a2 f8 fa 3e 40 1d 94 be cc 99 12 3e ac 42 f7 bd
       0.49017817 -0.28928566 0.14316481 -0.120732635
000080 72 ab 94 be c2 16 43 be 01 24 89 be 81 6d 03 be
       -0.29037052 -0.1905165 -0.2678528 -0.12834741
000090 8f 34 15 be 3c 39 05 bd db c1 01 3e 98 12 4e be
       -0.14570831 -0.032525286 0.12671606 -0.2012428
0000a0 f0 01 85 3d 15 3e 0d bc c7 33 9e be 6c 31 50 bd
       0.0649451 -0.008620759 -0.30898878 -0.050828382
0000b0 30 93 cf bd ff fe 49 bd 7c 1a da bc f9 bc 6f 3d
       -0.10135496 -0.04931545 -0.026623957 0.058529828
0000c0 2a 3a 5d 3d 40 a3 83 bd f0 39 ed bd bc ae f4 3b
       0.054010548 -0.06427622 -0.11583316 0.007467119
0000d0 dc d9 57 3d d8 4a c0 3c ac fd 06 bf dc fe 0f bf
       0.052698 0.023473188 -0.5273082 -0.5624826
0000e0 e7 42 de 3d 0f 14 a2 3d 02 df c0 3e a9 12 ad 3e
       0.10852604 0.07913982 0.3767014 0.338033
0000f0 34 5e 01 3e 36 df 3f 3e b1 a1 94 bd 4a 1e bd bd
       0.12633592 0.18737492 -0.07257403 -0.09234293
000100 78 1a cd bd 42 11 86 3d 02 23 16 3d 44 5f a1 bd
       -0.10014814 0.065462604 0.03665448 -0.078794986
000110 fa df 4d 3d 14 b1 c4 3d e8 73 ce bd e6 6a a1 3d
       0.05026243 0.096040875 -0.10080701 0.078817174
000120 d3 b9 b3 bd 68 8e b9 3d 53 94 00 3e 03 4c 52 3d
       -0.087756775 0.09060365 0.12556581 0.05134202
000130 02 9f 3b 3d 27 b3 ca 3c af c6 a0 be 6e f8 e5 bd
       0.04580594 0.02474363 -0.31401584 -0.11229025
000140 29 40 72 be 87 59 17 3e 03 ce ac 3e 63 92 38 bb
       -0.23657288 0.14780246 0.33750924 -0.0028163425
000150 ca ee a8 bd 9b 0b 15 3d 76 05 bd be fb 79 5c be
       -0.082486704 0.03638802 -0.3691823 -0.21530907
000160 5b fb 3a 3c 13 63 0b be aa 4c fb bd bc d2 13 3e
       0.011412467 -0.13612013 -0.12270482 0.14435858
000170 7b 23 b4 bd a4 1d 45 3e d1 6f fe 3e ed a4 5d be
       -0.0879583 0.19249588 0.49694684 -0.21644945
000180 5e 1d 7a 3e cc 56 2b 3d da 71 11 bf 7d a2 a9 bd
       0.24425265 0.041830823 -0.5681435 -0.08282945
000190 aa 6e c6 bd 88 d0 00 be 4d a4 5d bd f3 8a 93 bd
       -0.09689076 -0.12579548 -0.054111768 -0.07204237
0001a0 b4 72 91 3d 8f 15 fc bd f3 df 3f bd ea ba 4b bd
       0.07101956 -0.123087995 -0.046844434 -0.049738802
0001b0 76 e1 93 bd 08 3e a3 bd a1 0b 0a be 28 64 dd 3d
       -0.07220738 -0.07970816 -0.13480999 0.10810119
0001c0 9b 30 8c be b0 a6 1a be a1 0a 31 be 09 c2 36 3d
       -0.27380833 -0.15102649 -0.17289211 0.04461864
0001d0 d4 b0 f6 bd 18 91 fc bd 89 60 95 bc f6 44 c7 bd
       -0.12045446 -0.12332362 -0.018234508 -0.0972995
0001e0 9c 73 b8 be ec 06 63 bd 78 1d c2 3d 77 f8 84 be
       -0.36025703 -0.055426523 0.09478277 -0.25970814
0001f0 83 82 55 3e f4 29 1f 3e 40 48 bb bd 22 0f 14 bd
       0.20850568 0.15543348 -0.0914464 -0.036147244
000200 59 bb 60 be 00 f3 9e bd 15 03 f6 3d 19 87 5e be
       -0.21946467 -0.07761192 0.120123066 -0.21731223
000210 37 85 38 bd 4e d5 22 be 94 fc 83 bd c4 c9 ae 3d
       -0.04504892 -0.15901682 -0.0644466 0.085345775
000220 be 3c b9 bd 49 0b e6 bc 4a 11 bb bd dc 69 36 3d
       -0.09044789 -0.028081553 -0.09134157 0.04453455
000230 83 31 bb bd 93 56 4d bd 95 f3 d6 3d 82 18 cb bd
       -0.09140303 -0.05013139 0.10495678 -0.09916784
000240 c4 75 24 3d de fc 28 3e c8 59 da 3d 48 b8 aa 3e
       0.040151373 0.16502711 0.10661656 0.3334372
000250 47 88 07 3f 49 da 90 be 46 4e de 3d fa 5e ec bd
       0.5294232 -0.28291538 0.10854773 -0.11541553
000260 fa 23 3a bf 17 83 af bd a5 39 c6 3d b7 e0 89 bd
       -0.72711146 -0.08569925 0.096789636 -0.06732314
000270 94 bd 98 bd 14 8b 93 3a 63 64 a8 bc 3b 06 7b bc
       -0.07458034 0.0011256658 -0.02055568 -0.01532131
000280 42 01 91 bd cf b1 2e 3d 8f b2 b6 bd fb e3 b4 bd
       -0.07080318 0.04265004 -0.08920776 -0.08832546
000290 40 2b 30 bc fe d9 92 3d 57 a4 b1 bd 9a c1 af bd
       -0.010752499 0.07170485 -0.086739235 -0.085818484
0002a0 73 14 94 bd 3d 3f 24 be e4 80 62 bd 61 29 ae bd
       -0.07230463 -0.16039748 -0.0552987 -0.08503986
0002b0 6a 27 d0 bd f3 4e 3e 3d eb 8d 7b be 4f 9e 0f bd
       -0.10163768 0.04646201 -0.24565856 -0.035063084
0002c0 27 ad 77 3e a1 cd 29 be dc bb 92 bc 36 9d d4 3d
       0.24187146 -0.16582347 -0.017911844 0.10381548
0002d0 20 39 cd be ca f9 1d 3e 0b 3e d4 3d c8 62 3b be
       -0.40082645 0.15427318 0.10363396 -0.18299401
0002e0 35 d2 9c 3e 63 2a a4 bd b0 4a b0 3d 3b 57 3c 3d
       0.30629125 -0.08015897 0.086079955 0.045981627
0002f0 a8 70 66 be a4 e4 0a bd a4 9b b6 3c 40 b1 3b be
       -0.22503912 -0.033909455 0.022291012 -0.18329334
000300 56 8c 35 be 28 c2 89 bb b3 3a df bd 86 b5 b3 bc
       -0.17729315 -0.0042040534 -0.10899868 -0.021937143
000310 ce 74 a2 bd cf 65 8b 3d 4c 24 a9 3e 5a 96 18 be
       -0.07932435 0.06806528 0.33035505 -0.14901105
000320 24 ee 46 bd db a2 60 3d cc fa 94 be e1 9b ed 3d
       -0.048566952 0.05484281 -0.29097593 0.11601997
000330 94 f7 4c be be 93 8d bc dd 35 51 3c 51 2a ed bc
       -0.20016319 -0.017282363 0.01276919 -0.028950842
000340 e8 38 ad be 45 90 79 be b3 94 2e be a7 2a 57 be
       -0.3383248 -0.2437144 -0.17048912 -0.21012364
000350 87 9c 24 bd 9a 54 a1 bd e0 49 8a 3e 65 5e 84 3e
       -0.04018834 -0.078774646 0.27009487 0.25853267
000360 04 f5 69 3d f0 b4 29 3e 21 29 11 be e2 01 9c bd
       0.05711843 0.16572928 -0.14175846 -0.076175466
000370 f4 64 ad 3d 9b bf 96 be f8 0d 1e bd 3f c0 59 be
       0.08466521 -0.29443058 -0.03858754 -0.21264742
000380 c7 06 0e be b0 ad f7 bb 19 6b b3 3c bd 2f 1d bc
       -0.13869773 -0.007558547 0.021901654 -0.009593901
000390 1b 6d 8a 3d b7 4a 84 bd 09 de 1d 3d cb 6f 17 ba
       0.067590915 -0.06459563 0.038541827 -0.00057768513
0003a0 b5 fc af bd 4e b5 26 bd 24 d3 b2 be 38 47 cf 3e
       -0.08593122 -0.04070025 -0.34926713 0.40484023
0003b0 e1 e3 a0 3e 91 ca 31 3e bf dd 21 3f 0e 29 da bd
       0.31423858 0.17362429 0.6322898 -0.10652362
0003c0 76 d5 2e bd a6 92 b7 be 40 7c 24 bf 13 55 aa bd
       -0.04268404 -0.3585407 -0.6425209 -0.08317008
0003d0 0b 49 07 3d 1b f3 92 3d 9a e1 1e bc 6a 76 c2 bd
       0.033028644 0.07175275 -0.009697342 -0.09495242
0003e0 e9 8d ab bd 08 71 0c bd a3 39 02 3d 2b 10 09 3c
       -0.083766766 -0.034287483 0.031793248 0.008365671
0003f0 83 b6 35 bd 89 51 43 3e 94 fe 84 bd fd 38 b7 3b
       -0.04436351 0.19074072 -0.064938694 0.0055915103

conv_block_2.0.bias f4 [10]
000000 e7 03 c7 3e 53 3a 29 3e 67 05 ba 3e 9e c0 f0 3e
       0.38870165 0.16526155 0.36332247 0.47021955
000010 1b 36 ed 3d 7e 1f b3 bd 0d a8 ba 3d bf 5c ba 3c
       0.115825854 -0.08746241 0.091140844 0.022749303
000020 cc a7 82 ba e1 f8 92 3e
       -0.000996822 0.28705505

conv_block_2.2.weight f4 [10, 10, 3, 3]
000000 3d 4f 14 bd 7d 54 9a bd ca 6b 8e bd 83 dd bd bd
       -0.03620838 -0.07535646 -0.06954153 -0.09270766
000010 9e 7e 25 bd 27 1b 38 be aa e2 24 bd 54 56 0b be
       -0.040403955 -0.17979108 -0.040255226 -0.1360715
000020 e6 23 93 3b ea 16 03 3e 0c 45 a0 3e 9a b4 bb bd
       0.0044903634 0.1280171 0.3130268 -0.091653064
000030 de 7f e0 3d 54 eb 90 3e c2 8e ab bd 43 a1 28 3d
       0.10961889 0.2830454 -0.08376838 0.041169416
000040 73 9b 08 3d 93 74 16 3c 44 4b 2c 3d 97 e1 a0 bd
       0.033351373 0.009183067 0.042063966 -0.07855528
000050 61 6d ac bd 04 e1 a3 bd 81 09 0e 3c a9 b9 5f be
       -0.084193 -0.08001903 0.008669258 -0.21848167
000060 4c 1e 24 3d b2 27 fb bd d2 a0 c2 bd 75 2c 1f be
       0.040067956 -0.12263431 -0.0950333 -0.15544303
000070 fe 05 6a be fc 57 4b bd 65 e0 22 be 11 25 8a be
       -0.22853848 -0.049644455 -0.15905912 -0.26981404
000080 f4 fa c7 bd 79 ba 46 bd 32 0e 03 be c7 0a 5b be
       -0.097646624 -0.048517678 -0.12798384 -0.2139083
000090 51 70 24 3d 0c a9 8f bb b6 a2 05 be 10 bd 94 3d
       0.040146176 -0.0043841656 -0.1305035 0.07262623
0000a0 6d 2f 09 3e 49 11 1e bc c5 29 a7 bc 68 25 4c 3e
       0.13396998 -0.009647676 -0.02040566 0.19936144
0000b0 10 0d 95 bd 0f d3 ba 3d 2f db b1 3d c5 2d 20 3d
       -0.07277882 0.091222875 0.08684384 0.03910615
0000c0 c7 13 d7 3d 5a ec 77 3d b7 44 7d 3d c8 9c 12 bd
       0.10501819 0.060528137 0.06183311 -0.03579405
0000d0 4f 39 c8 3d c9 31 e2 3c aa ee 1b 3c 12 97 b5 3d
       0.09776556 0.02761163 0.009517351 0.08866705
0000e0 b4 b5 5a 3d ef 9a ab 3d 3a d4 17 bd 6b 2b eb 3d
       0.05339594 0.083791606 -0.03706763 0.11482891
0000f0 f3 76 d0 bd 4c b2 69 3c 18 b6 91 bd 92 88 f5 3c
       -0.10178938 0.014263701 -0.0711481 0.029972348
000100 1c 83 bc bd a7 ad 40 bd 16 28 3b bd 41 b5 da ba
       -0.09204695 -0.047040608 -0.045692526 -0.0016686098
000110 f7 a7 ec bd 65 e3 20 bd 05 95 13 bc a2 02 b4 3b
       -0.11555474 -0.03927936 -0.009007697 0.005493478
000120 0b e6 78 bd 2a b6 fa bc 8c 5e 2d bd 9c d1 e2 bd
       -0.06076626 -0.03060444 -0.042326495 -0.11075136
000130 c5 b5 91 bd cc b9 85 bd 6e ee 42 3d ef 04 d7 bd
       -0.07114748 -0.065295786 0.047590666 -0.10498988
000140 d6 fc a7 bb 3f 51 b4 3c 97 03 05 be 94 38 d2 3d
       -0.005126576 0.022011397 -0.1298965 0.10264698
000150 bc 4c 8f bd af bc 7b bd be 3a b0 bd eb f5 71 bd
       -0.06997058 -0.06145924 -0.08604954 -0.059072416
000160 85 82 cd bd a2 6a 09 be 71 ed b6 be f2 20 7b 3e
       -0.1003466 -0.13419583 -0.35728028 0.24524286
000170 86 c1 51 bd c6 38 05 3e ce 05 a2 3d f0 b4 b6 be
       -0.05120995 0.13009939 0.079112634 -0.3568492
000180 13 42 1e 3f 6a c5 1b be 78 0e da be 82 88 27 3d
       0.6181957 -0.15212026 -0.42589164 0.04090167
000190 09 b9 09 be 2d a9 9b be 03 a9 3b 3d 16 4a 14 3e
       -0.13449492 -0.30402508 0.04581548 0.14481387
0001a0 0e 5a 17 3e 48 72 59 be dd 4f e0 be 98 e3 2f 3a
       0.14780447 -0.21235001 -0.4381093 0.00067096343
0001b0 e7 76 01 be 69 de 46 be d2 71 0d 3d 98 9f 4c be
       -0.12643014 -0.1942078 0.034532376 -0.19982755
0001c0 f8 27 17 3d 2d 3f af be 75 86 24 be 4c ce 67 3c
       0.03690335 -0.34227887 -0.16066916 0.014148306
0001d0 5b b9 2e 3e 01 43 c4 be 85 58 c2 be 0a 22 2b bc
       0.17062895 -0.3833237 -0.3795816 -0.010445127
0001e0 15 a5 97 3c 86 fd e3 3d 01 1e 79 bd 67 a0 7a 3e
       0.018511334 0.1113234 -0.06081963 0.24475251
0001f0 46 c1 5c 3e 8d ec b8 bc d5 13 b2 3c 79 15 42 bd
       0.21558103 -0.022573734 0.021737972 -0.04738376
000200 74 4a 39 be 60 9e 6d 3e 3f 92 e7 bc 85 a6 2b be
       -0.18094808 0.23204947 -0.028267978 -0.16762741
000210 ed 6c 87 3e 13 48 b2 3c ae 0a 81 be 06 ff 12 3d
       0.2645029 0.021762883 -0.2520346 0.03588774
000220 d1 1b bc 3d bb 04 37 bc ad 06 98 3d 40 df 17 3d
       0.09184993 -0.011170561 0.07423148 0.037078142
000230 ea 94 f6 3c 4a a3 89 bd b2 8b cd 3d 19 c3 45 3d
       0.030100305 -0.06720598 0.100364104 0.048281763
000240 10 24 e0 3e 6a 45 56 3d ac 72 b9 be fa 2e 93 3e
       0.43777514 0.052312292 -0.362203 0.28746778
000250 ca 7d dd be 44 19 b5 bd 73 bf 1e be 69 38 24 be
       -0.43260032 -0.0884271 -0.1550272 -0.16037144
000260 85 48 34 bd 73 b1 74 bc e6 9d b6 bd 59 b1 41 3b
       -0.044014473 -0.014934885 -0.089168355 0.002955517
000270 25 7f 00 3d be 74 cf bd 47 74 ac 3d 43 49 c5 3c
       0.031371254 -0.10129689 0.08420616 0.024082785
000280 03 67 84 bd ab b8 8f 3c 22 79 fc 3c 0f 0b 86 bd
       -0.064649604 0.017544111 0.03081948 -0.06545078
000290 b9 09 05 3e 44 49 39 be 5e 15 29 3d 37 2b f9 3d
       0.1299199 -0.18094355 0.041280143 0.12166446
0002a0 e0 20 81 ba 61 dc b2 3d 04 d5 43 bd 56 b2 f9 bb
       -0.0009851716 0.0873344 -0.04781057 -0.0076201363
0002b0 5c b5 08 3e a1 66 98 3e e4 4c bc bd 9b 48 6b be
       0.13350433 0.297658 -0.09194353 -0.22976916
0002c0 a0 78 a3 bd 0e 52 52 be e0 18 ab be 91 a8 4f be
       -0.07981992 -0.20539114 -0.33417416 -0.20279147
0002d0 5b 86 a4 3e 9f bf 25 3e 4e 23 27 bc 28 52 63 be
       0.32133755 0.16186379 -0.010201288 -0.22199309
0002e0 04 5d 4f be 8e 93 75 bc 06 2a 36 be 93 58 d6 bd
       -0.20250326 -0.014988793 -0.17789468 -0.10466113
0002f0 64 50 ec bd 94 60 9d be d5 cf 66 be a6 81 09 be
       -0.11538771 -0.30737746 -0.22540219 -0.13428363
000300 83 22 12 be e8 27 73 3e 60 61 60 be 71 c2 16 be
       -0.14270978 0.23745692 -0.21912146 -0.14722611
000310 04 7f 93 3e db 85 ab be 47 7f d2 be db 24 b5 bc
       0.28807843 -0.3350056 -0.4111273 -0.0221123
000320 c8 54 43 be 26 d0 99 be 8f 4b 2d 3e 06 a7 ab be
       -0.1907531 -0.30041617 0.16923355 -0.33525866
000330 0b 1b 9b 3e 35 ec 09 3f dd 5e b4 be eb fc cd 3e
       0.3029407 0.5387605 -0.35228625 0.40232024
000340 97 26 c0 bd 56 87 29 bf bb cb a7 bd 58 1f 1e bd
       -0.093823604 -0.6622213 -0.081931554 -0.03860411
000350 2a 5a 2f bf 7c 71 40 3e 8c 16 c3 bb 7d cb af be
       -0.68496954 0.18793291 -0.0059536155 -0.34334937
000360 86 f7 9a bc 74 87 15 bd 9e fc ee bd 45 df 0c 3d
       -0.018916856 -0.03650613 -0.11669277 0.034392614
000370 85 1f 15 bd 9a 72 29 be 93 7f 14 3e 75 99 3f 3e
       -0.036407012 -0.16547623 0.1450179 0.18710883
000380 55 2c be 3d ab f9 9e 3d a2 54 08 bd a1 07 5b bc
       0.092857994 0.07762464 -0.033283837 -0.013368518
000390 fa 44 94 bd 17 1a 85 3d 08 28 8f bd ac a9 31 bd
       -0.07239719 0.06499117 -0.06990057 -0.043374702
0003a0 6d 44 b2 3d 85 ca d1 3c cf 8a 05 bd b1 6c 5b be
       0.087044574 0.025609264 -0.03260308 -0.21428181
0003b0 48 2a af 3c 07 9b 1e 3d 18 5d 52 be d8 11 94 3d
       0.021382466 0.038722064 -0.20543325 0.07229966
0003c0 c1 0b 32 bd 0c ae 53 3d d2 fe 6f bc ce 44 95 3d
       -0.04346824 0.051679656 -0.014648156 0.07288514
0003d0 1c fb 26 3d d4 f7 d7 3d 83 fa 9f 3d 54 24 94 bd
       0.04076682 0.10545316 0.07811453 -0.072334915
0003e0 0e b7 86 3d 45 5a 62 3d 80 a8 80 bd a7 a3 fe 3c
       0.06577884 0.05526187 -0.06282139 0.031083895
0003f0 b7 e7 9c bd cf 6c 6b bc f4 62 5c bb bd c3 3d bb
       -0.076613836 -0.014369204 -0.0033628317 -0.002895578

conv_block_2.2.bias f4 [10]
000000 22 24 66 be 9b 7d 3b 3e eb 92 9b 3d 57 8c 5a 3d
       -0.22474721 0.18309633 0.07596382 0.053356495
000010 8e 59 60 bd 00 04 47 be 2e 05 81 3a a4 bc 1e 3e
       -0.054772906 -0.1943512 0.0009843463 0.15501648
000020 9b 8f 8d bd 55 41 2f be
       -0.06912156 -0.17114766

classifier.1.weight f4 [10, 490]
000000 0d d8 b3 bb 43 c0 6b 3d d6 8c 34 3d cb 19 52 3c
       -0.0054884017 0.057556402 0.044079624 0.012823532
000010 0d 61 2a bd d2 39 85 3c e7 ec 41 bd 3e f2 c2 3c
       -0.04159646 0.016262922 -0.04734507 0.02379715
000020 08 df 71 3d 0f 00 87 3d 07 42 e7 3c 62 14 da bd
       0.05905059 0.06591808 0.028229726 -0.10648419
000030 39 ea 96 bc 69 e3 a8 3d 21 66 f9 bc e3 b5 84 3d
       -0.018422233 0.082465 -0.030444207 0.06480005
000040 d5 f7 98 3d ea 4c 9c bc af bc ac bd 5f d5 90 3c
       0.07469145 -0.019079644 -0.08434426 0.017679868
000050 a6 7c 0e 3e fe 9a b5 bc b3 e5 4d 3d 2a 5d 57 3d
       0.13914737 -0.022168633 0.050267886 0.052579083
000060 4f 34 08 3d d9 a0 53 3d 0a 06 5a 3d 7c f6 2c 3c
       0.03325301 0.05166707 0.053228416 0.010556813
000070 aa be 5a bd 85 a7 a5 bc 23 5b 08 bb 0c be a9 3c
       -0.053404488 -0.020221481 -0.0020806275 0.020720504
000080 45 3e 4d bc ac c7 15 3c 15 f0 6d bd 84 90 5e 3b
       -0.012527053 0.009141844 -0.05809029 0.003396065
000090 f8 fc 17 3c 2a b3 ab bb bd 12 03 3d aa 0c b8 bd
       0.009276621 -0.005239864 0.032000292 -0.089867905
0000a0 f3 ac 26 3d df c3 1c be c8 4d 54 bc 92 cd 45 bd
       0.04069228 -0.15309094 -0.012957998 -0.04829175
0000b0 8d f6 93 bc f0 f3 0e 3c c8 83 96 bd a0 41 c6 3d
       -0.0180619 0.008725151 -0.07349354 0.09680486
0000c0 3c 6d 02 be db cd 6a bd e1 2b 77 3e cd e4 1f 3e
       -0.12736982 -0.057325225 0.24137832 0.15614624
0000d0 aa 18 82 bd cd b2 71 3e fc 13 68 3e 61 85 79 3d
       -0.063523605 0.23603363 0.22663873 0.060918216
0000e0 3f e7 9a 3e c8 78 0b 3e b6 46 e0 bd e0 95 26 be
       0.30254552 0.13620293 -0.10950987 -0.1626811
0000f0 d2 54 cb 3d 50 96 03 3e 86 0d 22 bd a1 39 49 3e
       0.099282876 0.12850308 -0.03956368 0.1965089
000100 b1 28 39 3e e3 c5 cb bd 81 2d 3e be b1 25 b6 3d
       0.18081929 -0.09949853 -0.18572046 0.08893908
000110 80 be 64 3d e0 90 ec bd 57 70 df bd 4a 2a 40 3d
       0.055845737 -0.1155107 -0.10910099 0.04691533
000120 59 1b a5 bd 1f eb 8a be 39 a3 90 3d d9 4d 10 be
       -0.08061857 -0.27132508 0.07062382 -0.14092197
000130 b0 46 80 be 1c e8 c9 bc 50 c9 81 bc 10 60 13 3e
       -0.2505393 -0.024646811 -0.015843064 0.14392114
000140 34 46 61 be 18 17 cc bd 1d ee 08 be 65 be 7a bd
       -0.21999437 -0.09965342 -0.13372083 -0.06121673
000150 d8 76 97 bd 2c bf 69 bb 6c 14 72 3e 8d 89 84 bd
       -0.073957145 -0.0035666926 0.23640603 -0.06471548
000160 22 4b 7f bd 2c a3 2c be 43 79 5e bd cf 91 5a be
       -0.06232751 -0.1685912 -0.054314863 -0.21344684
000170 29 8d b3 3e 58 4c 21 3e 09 74 8f bd b7 18 5e bd
       0.35068634 0.15751779 -0.07004554 -0.05422279
000180 08 57 11 be f2 79 4a 3e 04 56 a8 bc 79 c3 23 3c
       -0.14193356 0.19773081 -0.020548828 0.009995335
000190 87 83 d3 bc 71 7b 6e be 2a 76 39 3d ea cb 81 3e
       -0.025819553 -0.23289277 0.045278706 0.25350887
0001a0 dc f8 f0 3d 81 4c 07 3d a8 46 78 3e bc c9 0b bc
       0.11766216 0.033031944 0.24245703 -0.008531984
0001b0 5b b1 87 3c cc fe d1 3c 52 1c 5d 3d a5 4e 3f 3e
       0.016564062 0.025634192 0.053982086 0.18682344
0001c0 da 06 ed bc 7d 25 a8 3e d4 b4 1e 3c ed c9 d6 bd
       -0.028933931 0.328411 0.0096866675 -0.10487733
0001d0 47 8c 6d 3e 81 a7 52 3d 09 28 13 bd 1f b7 85 bd
       0.23198043 0.051429275 -0.035926852 -0.06529068
0001e0 0e 94 56 3e 78 dc b5 3c 25 15 b7 bd 61 94 6a 3e
       0.20954916 0.022199854 -0.0893958 0.22908165
0001f0 51 82 1f be 89 42 48 be 3c b7 e6 bd 42 33 a1 3d
       -0.15577056 -0.19556631 -0.11265418 0.07871105
000200 3a 46 c4 3d 10 42 90 bd f4 4b 0b bd 2f 5b 0a be
       0.09583707 -0.070438504 -0.03400798 -0.13511346
000210 5d 69 88 be 22 2c 8a bd fc a0 c4 3d b9 fa 7a bd
       -0.26642886 -0.06746699 0.09601018 -0.061274264
000220 86 20 22 bd 17 a0 47 bd 6c db ab bd 06 bf b4 bd
       -0.039581798 -0.048736658 -0.08391461 -0.08825497
000230 6e 91 26 bd eb a1 5d be 76 05 0f be a2 88 3b be
       -0.040666036 -0.21643798 -0.13966927 -0.1831384
000240 91 9d c7 bc 9a 3f d5 3d c5 12 00 be a1 b0 f2 3d
       -0.024367126 0.10412522 -0.1250716 0.118500955
000250 8d 61 76 3e 19 e5 23 3e 35 dc b0 3c 4e 43 5b bd
       0.2406065 0.16005363 0.021589378 -0.053530984
000260 4d 51 d5 bc dc 60 aa bc 1b 8d 98 3d 68 c9 1a 3d
       -0.026039744 -0.02079814 0.07448789 0.037789732
000270 4a 76 0e 3d 58 a9 36 3e e6 7b dc 3d a0 77 db bd
       0.034780778 0.17838037 0.10765819 -0.10716176
000280 c8 d6 18 be 4b 60 f0 bd 8a 7f 5b be 9d db dc 3c
       -0.14925683 -0.117371164 -0.21435371 0.026960189
000290 b6 3b 30 3e e3 56 11 bd d6 d8 b0 bd 6b 61 29 3e
       0.17210278 -0.035483252 -0.08635108 0.16541068
0002a0 d6 93 1d 3e 20 f3 c3 3d b6 ff 84 bd 44 5b 92 3d
       0.15388426 0.09567857 -0.064940855 0.07146314
0002b0 43 da 3a bd 63 57 ad bd 10 66 8f 3e 8b 61 8c 3d
       -0.045618307 -0.08463933 0.28007555 0.06854542
0002c0 16 c0 d1 3c 35 14 be bd dd 35 a0 bc 46 f0 09 3e
       0.025604289 -0.09281198 -0.019556934 0.13470563
0002d0 a4 34 0a 3e 73 3a ff 3d d9 4d 3f 3e 61 af ab bd
       0.13496643 0.1246232 0.1868204 -0.0838306
0002e0 20 a6 73 bd 44 19 f6 3c 22 26 0c 3e 15 0f be 3d
       -0.0594846 0.030041344 0.13686422 0.092802204
0002f0 cc 5f c1 3d be f7 94 3d 49 31 20 3d d6 4a 93 bd
       0.094421 0.072738156 0.039109502 -0.07192008
000300 c9 10 0e be 83 1f 8e 3d d9 38 51 3e b2 90 46 3c
       -0.1387359 0.06939604 0.20431842 0.012119459
000310 2e d9 b7 bc f6 2e e0 bc 72 3b 6e bc 4d 55 33 3e
       -0.022442427 -0.027366143 -0.01454054 0.17513008
000320 ad 21 1b 3e 1c b8 6c bd ba 7e 26 3d a8 09 e8 3d
       0.15149565 -0.057792768 0.0406482 0.11329967
000330 31 64 2f 3e 19 21 1e 3d 6f 6c b9 3d a4 ea 3f 3e
       0.17128064 0.038605783 0.09053885 0.18741852
000340 30 47 74 bc 6e 39 09 3c eb b8 c8 3d 20 be 27 bd
       -0.014909551 0.008375509 0.09800895 -0.0409528
000350 b5 b9 9f bd 49 cf 5f 3e 26 c2 40 3e ef d4 14 3e
       -0.07799093 0.21856417 0.18824062 0.14534353
000360 77 4c 2b bb fb 16 90 3d dc 73 12 be 60 dc 4a be
       -0.0026138106 0.07035633 -0.1430201 -0.19810629
000370 99 5b d8 3d e5 20 90 bd 61 8e 9a bd 8e 45 97 bd
       0.10564346 -0.07037524 -0.07546688 -0.073863134
000380 d1 b3 a2 bb 19 67 3c 3c 91 f8 2c be 42 fe 94 3d
       -0.0049652834 0.01149919 -0.16891696 0.07275058
000390 43 2c 19 3b 9b cb af 3c 60 74 7b bd 09 7a 6a bc
       0.002337233 0.021459391 -0.06139028 -0.014311322
0003a0 9a 11 81 bd e8 c2 34 be 98 27 04 3b 04 73 09 3e
       -0.06302185 -0.17652476 0.0020165201 0.13422781
0003b0 b9 0c b7 bc 5c 3a 7e 3d 8e f3 a2 bd fc 98 49 3c
       -0.022344934 0.062067375 -0.079566106 0.012304541
0003c0 23 a2 d7 bd 33 80 df bd ca e4 37 3d f3 d5 ac bc
       -0.10528972 -0.10913124 0.044895925 -0.021098113
0003d0 73 cf 88 3d 5c 3d 07 bd 74 dc 60 3d 30 c6 a3 3d
       0.06680193 -0.0330175 0.05489774 0.07996786
0003e0 27 cf 49 3e 18 dd c6 3d 79 22 e8 bd f0 53 b7 bd
       0.19707929 0.09710139 -0.113347 -0.08951557
0003f0 da 65 0e bd ff 2a 6c bd b9 b1 e7 3c 9f 4c 0f 3e
       -0.034765102 -0.05765819 0.028282987 0.13994072

classifier.1.bias f4 [10]
000000 bc c1 11 3e 99 6e 5a be b1 c3 92 3e c6 6f 1b 3d
       0.1423406 -0.21331252 0.28664926 0.037948392
000010 04 59 c0 be e2 ab a8 3c b7 0f 81 3e 78 5d 07 3e
       -0.37567914 0.020589773 0.25207302 0.13219249
000020 3e e5 eb bc 35 12 6c be
       -0.028795835 -0.2305382
