models/03_computer_vision_model_1.pth (torch, 34216 bytes, 4 tensors)

layer_stack.1.weight f4 [10, 784]
00000000: b14d df3c e7a2 f23c 203d 0fbc 8806 fa3c
00000010: a681 13bc 09e9 1e3b 735f 03bd e7e4 46bc
00000020: 6a08 f53b da55 20bc 583b 483e 5c1c 673e
00000030: bd3d 493d c6f2 643d bb95 c23d f41b 963c
00000040: e3df 2e3e e119 5e3e fdc5 9f3c 7bcd 1ebc
00000050: d644 4bbd 1824 fdbc 0cd7 c2bc caaa ac3c
00000060: 9140 f9bc 1dcc 91bc c544 29bc 3339 b0bc
00000070: 6787 5a3b a07f 10bd 097e fe3c 09a6 0dbd
00000080: b9e5 b53c 9513 41bc 890e 6abd 40e4 83bc
00000090: 42c3 913d 97a8 533e cdc2 513e b046 dc3d
000000a0: 58ac 573d 3cef c53d 5f47 163e 1960 f13d
000000b0: 07b3 223e 586b 3f3e 2d34 673e e822 c33d
000000c0: e331 363c 1c3d 76bd 0682 8ebd 9491 c0bc
000000d0: c1cb 03bd c353 d33c 3e85 203c 81a6 713c
000000e0: 1d10 383c 740b 75ba 9f02 d13c 48a8 f2bc
000000f0: 38e7 cdbb c3da 4bbd 88b7 f93c b0bd 513d
00000100: 91de 9d3b cf4e 5dbc da76 ac3c d22b 6dbd
00000110: 6413 34ba 9e19 56bd 737d 86bc ccf3 30bc
00000120: 6929 d03c a797 9ebd 7568 81bd 1d61 84bd
00000130: 7802 923c 2a7b e43c 51c0 9bba ac9a 263c
00000140: 41a4 d2bc f6db d9bc 9e5c 913c 03f4 6dbc
00000150: 4da0 b03c 4acb 17bc 9268 963c 4d50 13bd
00000160: 30e3 f6bc 356c 823c 822e 933d d156 74bd
00000170: 66a9 c3bd 377b 9d3a 26f2 7a3d 911b 183c
00000180: df72 243b f32f c1bd 5c5c a0bd a848 d3bd
00000190: 8781 61bd 01fa b23c 6294 36bc 8d53 1bbe
000001a0: d6f9 b1bd 5374 1cbd 92e8 82bc 432f 1fbd
000001b0: 3a8b 2dbd f811 cdbc ffbb 0a3d 57e4 d13b
000001c0: 9d2c 333c 9e11 0ebd e801 f0bc 9c47 c3bc
000001d0: 2fc9 40bb 8163 8f3c 18a7 973c 7901 30bd
000001e0: 4b56 0abd 70bd 493d 3cac 103d 90bb 70bd
000001f0: 436a 1bbe 251d 16be 3506 03be 38c0 08be
00000200: ad24 97bd 8cc2 4dbc 7403 8a3d 6de4 20bd
00000210: 75cf 8cbd 0247 0f3d 82fb 62bc dbb8 13bc
00000220: 5467 4dbd fc0d 33bd eb01 cb3b 8713 0ebc
00000230: d1d2 5f3c 4c26 05bd 767a 9a3c 6511 2cbd
00000240: 9705 01bc 32fe a63d 2ded 453d ad2a a83d
00000250: 122b 913d 9b15 bebc 3c17 9cbc 256a 63bd
00000260: 30d9 13bd bfa0 fabd 86cd 96bd c00d cabd
00000270: 732b 27bd 359a 853c 0ce2 d23c 79da 51bc
00000280: 94ec 3e3d 40c3 ed3c 4dc9 213d c2eb b1bc
00000290: 0a00 45bc 0137 93bc 4b74 acbc 7f72 f13c
000002a0: 7453 e63b f1f2 babc 1f51 e0bc 01bd a6bc
000002b0: 02c8 ec3c 4b8b 9a3d 2f23 323d 8a91 cb3d
000002c0: 9dd8 c33b 95f6 cf3b 69f7 61bb d815 acbd
000002d0: 6bea e8bc fd86 0abd c93c 5abd 750c 50bd
000002e0: 3da6 f2bc c45c 57ba f8d3 3dbc acaa 1fbc
000002f0: 2431 2d3d 2b67 29bb 1ac4 5d3d a24b 7ebc
00000300: 78c2 e3bb afdb 823c e726 f0bb 7804 10bc
00000310: 12f0 8ab8 9b80 c8bb 27a7 b03a 6264 bfbb
00000320: d043 a3bc 4ff7 ee3c a191 e63d cef5 0a3e
00000330: 8477 883d 6f66 eebb 36b4 09bd 3d08 8cbd
00000340: 90a2 20bd b659 26bd 82ce c2bc 5091 54bc
00000350: d29e 67bd 9a87 3abd df9d f9bc c899 0b3d
00000360: 909a 803d e74d 993c 9db1 3b3d 0a8f 14bd
00000370: 828a 5bbd 67b7 fb3b 2ec7 c1bc 9b0f 10bc
00000380: f828 13bd b714 a43c e13d 9a3c 2c8c 9939
00000390: b291 89bc afb7 e0bc 2014 f33c d5df 0e3e
000003a0: 03f2 e63d 76bb 8a3d f59f 843d 9522 d33c
000003b0: 4320 0d3d 8d9b 71bd 43e8 7ebd 4895 05bc
000003c0: d67c 4b3d 7c17 9a3d 108a db3c 3a0d 0cbc
000003d0: 54c9 773d b115 ae3c ac83 07bd 4f07 b6bc
000003e0: 30a9 22bd f656 50bb a6b0 adbc e69f ebbc
000003f0: bc8a e2bb dfe8 b6bc 08b9 b0bc 29f5 45bd
0.027258726 0.029618694 -0.008742601 0.030520692 -0.009003079 0.0024247786 -0.03207345 -0.0121395355
0.0074778097 -0.009786094 0.19553888 0.22569412 0.049131144 0.05589559 0.09501215 0.018323876
0.17077594 0.2168956 0.019503588 -0.009692545 -0.049626194 -0.030901 -0.023784183 0.021077532
-0.030426295 -0.017797524 -0.010331337 -0.02151165 0.0033344866 -0.035277963 0.031065958 -0.03458217
0.022204267 -0.011784454 -0.057142768 -0.016100049 0.071173206 0.2066978 0.20484467 0.1075567
0.052654594 0.09664771 0.14675663 0.11785907 0.15888606 0.18693292 0.22578497 0.09528142
0.011120292 -0.060116872 -0.06958394 -0.023506917 -0.032176737 0.025796777 0.009797392 0.01474917
0.01123431 -0.0009347715 0.025513945 -0.029621258 -0.006283667 -0.049769174 0.030483022 0.05120629
0.0048177917 -0.013507559 0.021052767 -0.05790312 -0.00068693445 -0.052270524 -0.01641724 -0.010800313
0.02541037 -0.07743769 -0.06318752 -0.064638354 0.017823443 0.02789076 -0.0011882876 0.010168713
-0.025713088 -0.026594143 0.017744359 -0.014523509 0.021560812 -0.0092647765 0.01836041 -0.035965253
-0.030137628 0.015920738 0.07186605 -0.059653107 -0.095537946 0.001201487 0.061266087 0.009283916
0.0025092883 -0.09432974 -0.07830116 -0.103165925 -0.055055168 0.021847727 -0.011143776 -0.15168591
-0.086902305 -0.038196873 -0.015980039 -0.03886343 -0.042369105 -0.025032982 0.033870693 0.006405394
0.01093593 -0.03468477 -0.029297784 -0.023837857 -0.002941679 0.017503502 0.018512294 -0.042970154
-0.0337737 0.049252927 0.035320505 -0.058772624 -0.15177254 -0.14659555 -0.12795337 -0.13354576
-0.07380042 -0.012558591 0.0673894 -0.039280344 -0.06875507 0.034979828 -0.013853909 -0.009016241
-0.05014737 -0.04371451 0.006195297 -0.008671648 0.013661102 -0.032507226 0.018857222 -0.042008776
-0.007874868 0.08153953 0.04832189 0.08211265 0.07088293 -0.023203662 -0.019054048 -0.05552115
-0.036095798 -0.12237691 -0.07363419 -0.09865904 -0.04081292 0.016308883 0.025742553 -0.012808436
0.046612337 0.029023767 0.039498616 -0.021718863 -0.012023935 -0.017970564 -0.021051547 0.029473541
0.0070289914 -0.022820922 -0.027382432 -0.020353796 0.028903965 0.07546099 0.043490585 0.09939869
0.00597675 0.0063465335 -0.0034479743 -0.08402604 -0.028432092 -0.03382014 -0.053280625 -0.05079313
-0.029620284 -0.0008215422 -0.011586182 -0.009745281 0.042283192 -0.0025848846 0.054142095 -0.015520962
-0.0069506727 0.015973894 -0.0073288563 -0.008790128 -6.625069e-05 -0.0061188466 0.001347755 -0.005840824
-0.019929796 0.02917066 0.11258245 0.1357033 0.06663421 -0.0072753946 -0.03361913 -0.06837509
-0.03921753 -0.0406129 -0.023780111 -0.012974098 -0.056547947 -0.045539476 -0.030470787 0.034082204
0.062794805 0.018713905 0.045823682 -0.036269225 -0.05359889 0.0076817754 -0.023654547 -0.008792783
-0.035927743 0.020029409 0.018828334 0.0002928687 -0.016793106 -0.027431337 0.029672682 0.13952573
0.11276629 0.067740366 0.06475822 0.025773326 0.034454595 -0.058986235 -0.06223322 -0.008153267
0.0496796 0.075240105 0.026799232 -0.008548075 0.060494736 0.021250578 -0.033084556 -0.022220282
-0.03971213 -0.0031790114 -0.021202397 -0.028762769 -0.006913511 -0.022327838 -0.021572605 -0.048329506

layer_stack.1.bias f4 [10]
00000000: 0fb6 9a3e faa3 2abf 3a25 c33f b898 af3e
00000010: 6e16 e83e 35de 053e 7520 e9bb fe09 813e
00000020: 368b 25bb c473 9f3e
0.30217025 -0.6665646 1.5245736 0.34296203 0.45329612 0.13073047 -0.007114465 0.25202936
-0.0025259978 0.3114301

layer_stack.3.weight f4 [10, 10]
00000000: 050f c13d adfb e7bd 5939 06be 1a6d 0d3f
00000010: 5e70 e83e aeb7 a23d d08c 893e 1ff9 a8be
00000020: 0736 6cbf e654 d93e d437 67be 5b95 6a3f
00000030: 0eec 04bf 96c1 3d3e 7fe9 f9bd 3e82 75be
00000040: 3853 5ebf 6f9b 04be b296 13bf cea0 ebbf
00000050: ba6e 473f ac9f c93d 95d0 ce3e 5c5b 833d
00000060: 1b20 3ebf cbcc 003d d4b8 6c3f c399 0ebe
00000070: 2eae 32bf 6af9 2b3e 7353 733e 5870 8cbe
00000080: 585b bb3d 3437 84bd 6eff 983c 9761 113e
00000090: e722 893c 002d 53be 03a2 afbd 55f1 94be
000000a0: 2d8b 06bd a635 023d af6f 01bf ab20 f83d
000000b0: e508 433e d815 143f 25f9 a53f 8927 a33d
000000c0: ec11 9fbe b60b b9be 655f b8be e43d f0bf
000000d0: f411 be3f 2ba4 b03e a533 8a3e c910 913f
000000e0: dc78 6dbf 7970 7e3f 28ee 99be 8a95 6cbf
000000f0: 2aeb b7bd 4aef d3be 3140 abbe 5888 7ebe
00000100: 104a 753e f0ce 0abf 4798 6d3f ab80 563f
00000110: df32 78bf eeb7 e23e fa75 7f3e b85e 6cbf
00000120: bdd9 113f 47b7 d53e 1c21 e3be b1cf e9be
00000130: 39c6 aabf 7ad8 23be 8728 7e3f c2bb a8bf
00000140: ad88 0ebe 8449 c4bf fc72 d33e 84c2 0c3e
00000150: bdb2 3dbf 6ff1 d2bc 591b 6a3f 98e6 2abf
00000160: ba56 013f 5040 e43e 759e 26be 474c 49be
00000170: 7b60 913e 6067 173f f56f 05bf 0ce8 abbe
00000180: 2620 3abf 51f4 753f b9f1 be3e 4a66 2fbe
0.09426693 -0.113273 -0.13107814 0.552446 0.4539823 0.0794519 0.26865244 -0.33002564
-0.9226994 0.42447585 -0.2257989 0.9163415 -0.5192269 0.18530878 -0.12202739 -0.23975465
-0.8684573 -0.12949918 -0.5765182 -1.8408449 0.7790333 0.09844908 0.4039351 0.0641391
-0.7426774 0.031445306 0.92469525 -0.13925843 -0.6979703 0.16794363 0.23762302 -0.2742946
0.09148282 -0.06455842 0.018676486 0.14197384 0.016740276 -0.20622635 -0.08575823 -0.29090372
-0.032847572 0.031789444 -0.5056104 0.12115606 0.19046362 0.5784583 1.2966658 0.07966525
-0.3106836 -0.36141747 -0.3601028 -1.8768888 1.4849229 0.3450025 0.26992527 1.1333247
-0.9276254 0.9939037 -0.3006451 -0.9241568 -0.08980401 -0.413935 -0.33447412 -0.24856699
0.23954034 -0.5422201 0.9281048 0.8379008 -0.96952623 0.44280952 0.24947348 -0.9233203
0.5697287 0.41741392 -0.44361198 -0.45666268 -1.3341743 -0.16000548 0.9928059 -1.3182299
-0.13919325 -1.5334935 0.41298664 0.13746077 -0.7410086 -0.02574989 0.9144798 -0.6675811
0.5052296 0.44580317 -0.16271384 -0.19658004 0.2839392 0.5914211 -0.5212396 -0.33575475
-0.72705305 0.9607592 0.37293795 -0.17128864

layer_stack.3.bias f4 [10]
00000000: a5c2 6c3f 2307 b23e b86f e23e e9fb 2abe
00000010: dcea d5be 161a b33f 5131 843f 195a 563f
00000020: cff8 39bf 2947 43bf
0.92484504 0.3477107 0.4422586 -0.16697659 -0.41780746 1.3992336 1.032755 0.8373123
-0.72645277 -0.76280457
